[net]
batch=16
subdivisions=1
width=864
height=480
embedding_dim=512
channels=3

[swin]
hidden_dim=128
layers=2, 2, 6, 2
heads=3, 6, 12, 24
channels=3
head_dim=32
window_size=3
downscaling_factors=4, 2, 2, 2
relative_pos_embedding=True
dim=1024

[convolutional]
batch_normalize=1
filters=512
size=1
stride=1
pad=1
activation=leaky

[convolutional]
batch_normalize=1
size=3
stride=1
pad=1
filters=1024
activation=leaky

[convolutional]
size=1
stride=1
pad=1
filters=24
activation=linear

######### embedding ###########
[route]
layers = -3

[convolutional]
size=3
stride=1
pad=1
filters=$embedding_dim
activation=linear

[route]
layers = -3, -1
###############################


[yolo]
mask = 8,9,10,11
anchors = 6,16, 8,23, 11,32, 16,45,   21,64, 30,90, 43,128, 60,180,   85,255, 120,360, 170,420, 340, 320              
classes=1
num=12
jitter=.3
ignore_thresh = .7
truth_thresh = 1
random=1


[route]
layers = -7

[convolutional]
batch_normalize=1
filters=256
size=1
stride=1
pad=1
activation=leaky

[upsample]
stride=2

[convolutional]
batch_normalize=1
filters=256
size=1
stride=1
pad=1
activation=leaky

[convolutional]
batch_normalize=1
size=3
stride=1
pad=1
filters=512
activation=leaky

[convolutional]
batch_normalize=1
filters=256
size=1
stride=1
pad=1
activation=leaky

[convolutional]
batch_normalize=1
size=3
stride=1
pad=1
filters=512
activation=leaky

[convolutional]
batch_normalize=1
filters=256
size=1
stride=1
pad=1
activation=leaky

[convolutional]
batch_normalize=1
size=3
stride=1
pad=1
filters=512
activation=leaky

[convolutional]
size=1
stride=1
pad=1
filters=24
activation=linear

######### embedding ###########
[route]
layers = -3

[convolutional]
size=3
stride=1
pad=1
filters=$embedding_dim
activation=linear

[route]
layers = -3, -1
###############################

[yolo]
mask = 4,5,6,7 
anchors = 6,16, 8,23, 11,32, 16,45,   21,64, 30,90, 43,128, 60,180,   85,255, 120,320, 170,320, 340,320              
classes=1
num=12
jitter=.3
ignore_thresh = .7
truth_thresh = 1
random=1



[route]
layers = -7

[convolutional]
batch_normalize=1
filters=128
size=1
stride=1
pad=1
activation=leaky

[upsample]
stride=2


[convolutional]
batch_normalize=1
filters=128
size=1
stride=1
pad=1
activation=leaky

[convolutional]
batch_normalize=1
size=3
stride=1
pad=1
filters=256
activation=leaky

[convolutional]
batch_normalize=1
filters=128
size=1
stride=1
pad=1
activation=leaky

[convolutional]
batch_normalize=1
size=3
stride=1
pad=1
filters=256
activation=leaky

[convolutional]
batch_normalize=1
filters=128
size=1
stride=1
pad=1
activation=leaky

[convolutional]
batch_normalize=1
size=3
stride=1
pad=1
filters=256
activation=leaky

[convolutional]
size=1
stride=1
pad=1
filters=24
activation=linear



######### embedding ###########
[route]
layers = -3

[convolutional]
size=3
stride=1
pad=1
filters=$embedding_dim
activation=linear

[route]
layers = -3, -1
###############################

[yolo]
mask = 0,1,2,3
anchors = 6,16, 8,23, 11,32, 16,45,   21,64, 30,90, 43,128, 60,180,   85,255, 120,320, 170,320, 340,320              
classes=1
num=12
jitter=.3
ignore_thresh = .7
truth_thresh = 1
random=1
